…
2024-01-18 17:51:22,291 !!!!!!!!!!!!!!!!!!!!!!!!!!!!!!!!!!!!!!!!!!!!!
2024-01-18 17:51:22,291 !!!!!!!!!!!!!!!!!!!!!!!!!!!!!!!!!!!!!!!!!!!!!
2024-01-18 17:51:22,292 !!!!!!!!!!!!!!!!!!!!!!!!!!!!!!!!!!!!!!!!!!!!!
2024-01-18 17:51:22,292 ERROR: UNCOMMITTED CHANGES IN REPO! THIS WILL MAKE IT HARD TO REPLICATE THIS EXPERIMENT LATER
2024-01-18 17:51:22,292 !!!!!!!!!!!!!!!!!!!!!!!!!!!!!!!!!!!!!!!!!!!!!
2024-01-18 17:51:22,292 !!!!!!!!!!!!!!!!!!!!!!!!!!!!!!!!!!!!!!!!!!!!!
2024-01-18 17:51:22,292 !!!!!!!!!!!!!!!!!!!!!!!!!!!!!!!!!!!!!!!!!!!!!
2024-01-18 17:51:22,292 ## Loading datasets with skeletons:
2024-01-18 17:51:23,506 self.in_mlp=Sequential(
  (0): Linear(in_features=3, out_features=512, bias=True)
  (1): Sigmoid()
  (2): Linear(in_features=512, out_features=512, bias=True)
  (3): Sigmoid()
  (4): Linear(in_features=512, out_features=100, bias=True)
  (5): Sigmoid()
)
2024-01-18 17:53:25,009 !!!!!!!!!!!!!!!!!!!!!!!!!!!!!!!!!!!!!!!!!!!!!
2024-01-18 17:53:25,010 !!!!!!!!!!!!!!!!!!!!!!!!!!!!!!!!!!!!!!!!!!!!!
2024-01-18 17:53:25,010 !!!!!!!!!!!!!!!!!!!!!!!!!!!!!!!!!!!!!!!!!!!!!
2024-01-18 17:53:25,010 ERROR: UNCOMMITTED CHANGES IN REPO! THIS WILL MAKE IT HARD TO REPLICATE THIS EXPERIMENT LATER
2024-01-18 17:53:25,010 !!!!!!!!!!!!!!!!!!!!!!!!!!!!!!!!!!!!!!!!!!!!!
2024-01-18 17:53:25,010 !!!!!!!!!!!!!!!!!!!!!!!!!!!!!!!!!!!!!!!!!!!!!
2024-01-18 17:53:25,010 !!!!!!!!!!!!!!!!!!!!!!!!!!!!!!!!!!!!!!!!!!!!!
2024-01-18 17:53:25,010 ## Loading datasets with skeletons:
2024-01-18 17:53:26,217 self.in_mlp=Sequential(
  (0): Linear(in_features=3, out_features=512, bias=True)
  (1): Sigmoid()
  (2): Linear(in_features=512, out_features=512, bias=True)
  (3): Sigmoid()
  (4): Linear(in_features=512, out_features=100, bias=True)
  (5): Sigmoid()
)
2024-01-18 17:53:46,275 !!!!!!!!!!!!!!!!!!!!!!!!!!!!!!!!!!!!!!!!!!!!!
2024-01-18 17:53:46,275 !!!!!!!!!!!!!!!!!!!!!!!!!!!!!!!!!!!!!!!!!!!!!
2024-01-18 17:53:46,275 !!!!!!!!!!!!!!!!!!!!!!!!!!!!!!!!!!!!!!!!!!!!!
2024-01-18 17:53:46,275 ERROR: UNCOMMITTED CHANGES IN REPO! THIS WILL MAKE IT HARD TO REPLICATE THIS EXPERIMENT LATER
2024-01-18 17:53:46,275 !!!!!!!!!!!!!!!!!!!!!!!!!!!!!!!!!!!!!!!!!!!!!
2024-01-18 17:53:46,275 !!!!!!!!!!!!!!!!!!!!!!!!!!!!!!!!!!!!!!!!!!!!!
2024-01-18 17:53:46,275 !!!!!!!!!!!!!!!!!!!!!!!!!!!!!!!!!!!!!!!!!!!!!
2024-01-18 17:53:46,275 ## Loading datasets with skeletons:
2024-01-18 17:53:47,556 self.in_mlp=Sequential(
  (0): Linear(in_features=3, out_features=512, bias=True)
  (1): Sigmoid()
  (2): Linear(in_features=512, out_features=512, bias=True)
  (3): Sigmoid()
  (4): Linear(in_features=512, out_features=100, bias=True)
  (5): Sigmoid()
)
2024-01-18 17:56:36,769 !!!!!!!!!!!!!!!!!!!!!!!!!!!!!!!!!!!!!!!!!!!!!
2024-01-18 17:56:36,770 !!!!!!!!!!!!!!!!!!!!!!!!!!!!!!!!!!!!!!!!!!!!!
2024-01-18 17:56:36,770 !!!!!!!!!!!!!!!!!!!!!!!!!!!!!!!!!!!!!!!!!!!!!
2024-01-18 17:56:36,770 ERROR: UNCOMMITTED CHANGES IN REPO! THIS WILL MAKE IT HARD TO REPLICATE THIS EXPERIMENT LATER
2024-01-18 17:56:36,770 !!!!!!!!!!!!!!!!!!!!!!!!!!!!!!!!!!!!!!!!!!!!!
2024-01-18 17:56:36,770 !!!!!!!!!!!!!!!!!!!!!!!!!!!!!!!!!!!!!!!!!!!!!
2024-01-18 17:56:36,770 !!!!!!!!!!!!!!!!!!!!!!!!!!!!!!!!!!!!!!!!!!!!!
2024-01-18 17:56:36,770 ## Loading datasets with skeletons:
2024-01-18 17:56:37,930 self.in_mlp=Sequential(
  (0): Linear(in_features=3, out_features=512, bias=True)
  (1): Sigmoid()
  (2): Linear(in_features=512, out_features=512, bias=True)
  (3): Sigmoid()
  (4): Linear(in_features=512, out_features=100, bias=True)
  (5): Sigmoid()
)
2024-01-18 17:58:39,320 !!!!!!!!!!!!!!!!!!!!!!!!!!!!!!!!!!!!!!!!!!!!!
2024-01-18 17:58:39,321 !!!!!!!!!!!!!!!!!!!!!!!!!!!!!!!!!!!!!!!!!!!!!
2024-01-18 17:58:39,321 !!!!!!!!!!!!!!!!!!!!!!!!!!!!!!!!!!!!!!!!!!!!!
2024-01-18 17:58:39,321 ERROR: UNCOMMITTED CHANGES IN REPO! THIS WILL MAKE IT HARD TO REPLICATE THIS EXPERIMENT LATER
2024-01-18 17:58:39,321 !!!!!!!!!!!!!!!!!!!!!!!!!!!!!!!!!!!!!!!!!!!!!
2024-01-18 17:58:39,321 !!!!!!!!!!!!!!!!!!!!!!!!!!!!!!!!!!!!!!!!!!!!!
2024-01-18 17:58:39,321 !!!!!!!!!!!!!!!!!!!!!!!!!!!!!!!!!!!!!!!!!!!!!
2024-01-18 17:58:39,321 ## Loading datasets with skeletons:
2024-01-18 17:58:40,459 self.in_mlp=Sequential(
  (0): Linear(in_features=3, out_features=512, bias=True)
  (1): Sigmoid()
  (2): Linear(in_features=512, out_features=512, bias=True)
  (3): Sigmoid()
  (4): Linear(in_features=512, out_features=100, bias=True)
  (5): Sigmoid()
)
2024-01-18 17:59:20,211 !!!!!!!!!!!!!!!!!!!!!!!!!!!!!!!!!!!!!!!!!!!!!
2024-01-18 17:59:20,212 !!!!!!!!!!!!!!!!!!!!!!!!!!!!!!!!!!!!!!!!!!!!!
2024-01-18 17:59:20,213 !!!!!!!!!!!!!!!!!!!!!!!!!!!!!!!!!!!!!!!!!!!!!
2024-01-18 17:59:20,213 ERROR: UNCOMMITTED CHANGES IN REPO! THIS WILL MAKE IT HARD TO REPLICATE THIS EXPERIMENT LATER
2024-01-18 17:59:20,213 !!!!!!!!!!!!!!!!!!!!!!!!!!!!!!!!!!!!!!!!!!!!!
2024-01-18 17:59:20,213 !!!!!!!!!!!!!!!!!!!!!!!!!!!!!!!!!!!!!!!!!!!!!
2024-01-18 17:59:20,213 !!!!!!!!!!!!!!!!!!!!!!!!!!!!!!!!!!!!!!!!!!!!!
2024-01-18 17:59:20,213 ## Loading datasets with skeletons:
2024-01-18 17:59:21,399 self.in_mlp=Sequential(
  (0): Linear(in_features=3, out_features=512, bias=True)
  (1): Sigmoid()
  (2): Linear(in_features=512, out_features=512, bias=True)
  (3): Sigmoid()
  (4): Linear(in_features=512, out_features=100, bias=True)
  (5): Sigmoid()
)
2024-01-18 18:00:21,886 !!!!!!!!!!!!!!!!!!!!!!!!!!!!!!!!!!!!!!!!!!!!!
2024-01-18 18:00:21,887 !!!!!!!!!!!!!!!!!!!!!!!!!!!!!!!!!!!!!!!!!!!!!
2024-01-18 18:00:21,887 !!!!!!!!!!!!!!!!!!!!!!!!!!!!!!!!!!!!!!!!!!!!!
2024-01-18 18:00:21,887 ERROR: UNCOMMITTED CHANGES IN REPO! THIS WILL MAKE IT HARD TO REPLICATE THIS EXPERIMENT LATER
2024-01-18 18:00:21,887 !!!!!!!!!!!!!!!!!!!!!!!!!!!!!!!!!!!!!!!!!!!!!
2024-01-18 18:00:21,887 !!!!!!!!!!!!!!!!!!!!!!!!!!!!!!!!!!!!!!!!!!!!!
2024-01-18 18:00:21,887 !!!!!!!!!!!!!!!!!!!!!!!!!!!!!!!!!!!!!!!!!!!!!
2024-01-18 18:00:21,887 ## Loading datasets with skeletons:
2024-01-18 18:00:23,086 self.in_mlp=Sequential(
  (0): Linear(in_features=3, out_features=512, bias=True)
  (1): Sigmoid()
  (2): Linear(in_features=512, out_features=512, bias=True)
  (3): Sigmoid()
  (4): Linear(in_features=512, out_features=100, bias=True)
  (5): Sigmoid()
)
2024-01-18 18:01:50,498 !!!!!!!!!!!!!!!!!!!!!!!!!!!!!!!!!!!!!!!!!!!!!
2024-01-18 18:01:50,499 !!!!!!!!!!!!!!!!!!!!!!!!!!!!!!!!!!!!!!!!!!!!!
2024-01-18 18:01:50,499 !!!!!!!!!!!!!!!!!!!!!!!!!!!!!!!!!!!!!!!!!!!!!
2024-01-18 18:01:50,499 ERROR: UNCOMMITTED CHANGES IN REPO! THIS WILL MAKE IT HARD TO REPLICATE THIS EXPERIMENT LATER
2024-01-18 18:01:50,499 !!!!!!!!!!!!!!!!!!!!!!!!!!!!!!!!!!!!!!!!!!!!!
2024-01-18 18:01:50,499 !!!!!!!!!!!!!!!!!!!!!!!!!!!!!!!!!!!!!!!!!!!!!
2024-01-18 18:01:50,499 !!!!!!!!!!!!!!!!!!!!!!!!!!!!!!!!!!!!!!!!!!!!!
2024-01-18 18:01:50,499 ## Loading datasets with skeletons:
2024-01-18 18:01:51,632 self.in_mlp=Sequential(
  (0): Linear(in_features=3, out_features=512, bias=True)
  (1): Sigmoid()
  (2): Linear(in_features=512, out_features=512, bias=True)
  (3): Sigmoid()
  (4): Linear(in_features=512, out_features=100, bias=True)
  (5): Sigmoid()
)
2024-01-18 18:02:17,242 !!!!!!!!!!!!!!!!!!!!!!!!!!!!!!!!!!!!!!!!!!!!!
2024-01-18 18:02:17,242 !!!!!!!!!!!!!!!!!!!!!!!!!!!!!!!!!!!!!!!!!!!!!
2024-01-18 18:02:17,242 !!!!!!!!!!!!!!!!!!!!!!!!!!!!!!!!!!!!!!!!!!!!!
2024-01-18 18:02:17,242 ERROR: UNCOMMITTED CHANGES IN REPO! THIS WILL MAKE IT HARD TO REPLICATE THIS EXPERIMENT LATER
2024-01-18 18:02:17,242 !!!!!!!!!!!!!!!!!!!!!!!!!!!!!!!!!!!!!!!!!!!!!
2024-01-18 18:02:17,242 !!!!!!!!!!!!!!!!!!!!!!!!!!!!!!!!!!!!!!!!!!!!!
2024-01-18 18:02:17,242 !!!!!!!!!!!!!!!!!!!!!!!!!!!!!!!!!!!!!!!!!!!!!
2024-01-18 18:02:17,242 ## Loading datasets with skeletons:
2024-01-18 18:02:18,448 self.in_mlp=Sequential(
  (0): Linear(in_features=3, out_features=512, bias=True)
  (1): Sigmoid()
  (2): Linear(in_features=512, out_features=512, bias=True)
  (3): Sigmoid()
  (4): Linear(in_features=512, out_features=100, bias=True)
  (5): Sigmoid()
)
2024-01-18 18:04:16,615 Dev Set Evaluation: 
2024-01-18 18:04:36,312   - Batch 100/4184
2024-01-18 18:04:51,555   - Batch 200/4184
2024-01-18 18:05:07,076   - Batch 300/4184
2024-01-18 18:05:22,176   - Batch 400/4184
2024-01-18 18:05:36,866   - Batch 500/4184
2024-01-18 18:05:51,830   - Batch 600/4184
2024-01-18 18:06:07,369   - Batch 700/4184
…
2024-01-18 18:10:42,530 !!!!!!!!!!!!!!!!!!!!!!!!!!!!!!!!!!!!!!!!!!!!!
2024-01-18 18:10:42,530 !!!!!!!!!!!!!!!!!!!!!!!!!!!!!!!!!!!!!!!!!!!!!
2024-01-18 18:10:42,531 !!!!!!!!!!!!!!!!!!!!!!!!!!!!!!!!!!!!!!!!!!!!!
2024-01-18 18:10:42,531 ERROR: UNCOMMITTED CHANGES IN REPO! THIS WILL MAKE IT HARD TO REPLICATE THIS EXPERIMENT LATER
2024-01-18 18:10:42,531 !!!!!!!!!!!!!!!!!!!!!!!!!!!!!!!!!!!!!!!!!!!!!
2024-01-18 18:10:42,531 !!!!!!!!!!!!!!!!!!!!!!!!!!!!!!!!!!!!!!!!!!!!!
2024-01-18 18:10:42,531 !!!!!!!!!!!!!!!!!!!!!!!!!!!!!!!!!!!!!!!!!!!!!
2024-01-18 18:10:42,531 ## Loading datasets with skeletons:
2024-01-18 18:10:43,685 self.in_mlp=Sequential(
  (0): Linear(in_features=3, out_features=512, bias=True)
  (1): Sigmoid()
  (2): Linear(in_features=512, out_features=512, bias=True)
  (3): Sigmoid()
  (4): Linear(in_features=512, out_features=100, bias=True)
  (5): Sigmoid()
)
2024-01-18 18:11:02,435   - Batch 100/4184
2024-01-18 18:11:17,214   - Batch 200/4184
2024-01-18 18:11:37,143 !!!!!!!!!!!!!!!!!!!!!!!!!!!!!!!!!!!!!!!!!!!!!
2024-01-18 18:11:37,143 !!!!!!!!!!!!!!!!!!!!!!!!!!!!!!!!!!!!!!!!!!!!!
2024-01-18 18:11:37,143 !!!!!!!!!!!!!!!!!!!!!!!!!!!!!!!!!!!!!!!!!!!!!
2024-01-18 18:11:37,143 ERROR: UNCOMMITTED CHANGES IN REPO! THIS WILL MAKE IT HARD TO REPLICATE THIS EXPERIMENT LATER
2024-01-18 18:11:37,143 !!!!!!!!!!!!!!!!!!!!!!!!!!!!!!!!!!!!!!!!!!!!!
2024-01-18 18:11:37,143 !!!!!!!!!!!!!!!!!!!!!!!!!!!!!!!!!!!!!!!!!!!!!
2024-01-18 18:11:37,143 !!!!!!!!!!!!!!!!!!!!!!!!!!!!!!!!!!!!!!!!!!!!!
2024-01-18 18:11:37,143 Initializing wandb...
2024-01-18 18:11:38,426 ## Loading datasets with skeletons:
2024-01-18 18:11:39,578 self.in_mlp=Sequential(
  (0): Linear(in_features=3, out_features=512, bias=True)
  (1): Sigmoid()
  (2): Linear(in_features=512, out_features=512, bias=True)
  (3): Sigmoid()
  (4): Linear(in_features=512, out_features=100, bias=True)
  (5): Sigmoid()
)
2024-01-18 18:11:58,666   - Batch 100/4184
2024-01-18 18:12:13,493   - Batch 200/4184
2024-01-18 18:12:28,308   - Batch 300/4184
2024-01-18 18:12:43,653   - Batch 400/4184
2024-01-18 18:13:03,560 !!!!!!!!!!!!!!!!!!!!!!!!!!!!!!!!!!!!!!!!!!!!!
2024-01-18 18:13:03,560 !!!!!!!!!!!!!!!!!!!!!!!!!!!!!!!!!!!!!!!!!!!!!
2024-01-18 18:13:03,560 !!!!!!!!!!!!!!!!!!!!!!!!!!!!!!!!!!!!!!!!!!!!!
…
2024-01-18 18:15:43,620 !!!!!!!!!!!!!!!!!!!!!!!!!!!!!!!!!!!!!!!!!!!!!
2024-01-18 18:15:43,620 !!!!!!!!!!!!!!!!!!!!!!!!!!!!!!!!!!!!!!!!!!!!!
2024-01-18 18:15:43,620 ERROR: UNCOMMITTED CHANGES IN REPO! THIS WILL MAKE IT HARD TO REPLICATE THIS EXPERIMENT LATER
2024-01-18 18:15:43,620 !!!!!!!!!!!!!!!!!!!!!!!!!!!!!!!!!!!!!!!!!!!!!
2024-01-18 18:15:43,620 !!!!!!!!!!!!!!!!!!!!!!!!!!!!!!!!!!!!!!!!!!!!!
2024-01-18 18:15:43,620 !!!!!!!!!!!!!!!!!!!!!!!!!!!!!!!!!!!!!!!!!!!!!
2024-01-18 18:15:43,620 Initializing wandb...
2024-01-18 18:15:46,673 ## Loading datasets with skeletons:
2024-01-18 18:15:47,925 self.in_mlp=Sequential(
  (0): Linear(in_features=3, out_features=512, bias=True)
  (1): Sigmoid()
  (2): Linear(in_features=512, out_features=512, bias=True)
  (3): Sigmoid()
  (4): Linear(in_features=512, out_features=100, bias=True)
  (5): Sigmoid()
)
2024-01-18 18:16:42,510 !!!!!!!!!!!!!!!!!!!!!!!!!!!!!!!!!!!!!!!!!!!!!
2024-01-18 18:16:42,510 !!!!!!!!!!!!!!!!!!!!!!!!!!!!!!!!!!!!!!!!!!!!!
2024-01-18 18:16:42,510 !!!!!!!!!!!!!!!!!!!!!!!!!!!!!!!!!!!!!!!!!!!!!
2024-01-18 18:16:42,510 ERROR: UNCOMMITTED CHANGES IN REPO! THIS WILL MAKE IT HARD TO REPLICATE THIS EXPERIMENT LATER
2024-01-18 18:16:42,510 !!!!!!!!!!!!!!!!!!!!!!!!!!!!!!!!!!!!!!!!!!!!!
2024-01-18 18:16:42,510 !!!!!!!!!!!!!!!!!!!!!!!!!!!!!!!!!!!!!!!!!!!!!
2024-01-18 18:16:42,510 !!!!!!!!!!!!!!!!!!!!!!!!!!!!!!!!!!!!!!!!!!!!!
2024-01-18 18:16:42,510 ## Loading datasets with skeletons:
2024-01-18 18:16:43,647 self.in_mlp=Sequential(
  (0): Linear(in_features=3, out_features=512, bias=True)
  (1): Sigmoid()
  (2): Linear(in_features=512, out_features=512, bias=True)
  (3): Sigmoid()
  (4): Linear(in_features=512, out_features=100, bias=True)
  (5): Sigmoid()
)
2024-01-18 18:17:25,166 !!!!!!!!!!!!!!!!!!!!!!!!!!!!!!!!!!!!!!!!!!!!!
2024-01-18 18:17:25,166 !!!!!!!!!!!!!!!!!!!!!!!!!!!!!!!!!!!!!!!!!!!!!
2024-01-18 18:17:25,166 !!!!!!!!!!!!!!!!!!!!!!!!!!!!!!!!!!!!!!!!!!!!!
2024-01-18 18:17:25,166 ERROR: UNCOMMITTED CHANGES IN REPO! THIS WILL MAKE IT HARD TO REPLICATE THIS EXPERIMENT LATER
2024-01-18 18:17:25,166 !!!!!!!!!!!!!!!!!!!!!!!!!!!!!!!!!!!!!!!!!!!!!
2024-01-18 18:17:25,166 !!!!!!!!!!!!!!!!!!!!!!!!!!!!!!!!!!!!!!!!!!!!!
2024-01-18 18:17:25,166 !!!!!!!!!!!!!!!!!!!!!!!!!!!!!!!!!!!!!!!!!!!!!
2024-01-18 18:17:25,166 ## Loading datasets with skeletons:
2024-01-18 18:17:26,294 self.in_mlp=Sequential(
  (0): Linear(in_features=3, out_features=512, bias=True)
  (1): Sigmoid()
  (2): Linear(in_features=512, out_features=512, bias=True)
  (3): Sigmoid()
  (4): Linear(in_features=512, out_features=100, bias=True)
  (5): Sigmoid()
)
2024-01-18 18:18:05,227 !!!!!!!!!!!!!!!!!!!!!!!!!!!!!!!!!!!!!!!!!!!!!
2024-01-18 18:18:05,227 !!!!!!!!!!!!!!!!!!!!!!!!!!!!!!!!!!!!!!!!!!!!!
2024-01-18 18:18:05,228 !!!!!!!!!!!!!!!!!!!!!!!!!!!!!!!!!!!!!!!!!!!!!
2024-01-18 18:18:05,228 ERROR: UNCOMMITTED CHANGES IN REPO! THIS WILL MAKE IT HARD TO REPLICATE THIS EXPERIMENT LATER
2024-01-18 18:18:05,228 !!!!!!!!!!!!!!!!!!!!!!!!!!!!!!!!!!!!!!!!!!!!!
2024-01-18 18:18:05,228 !!!!!!!!!!!!!!!!!!!!!!!!!!!!!!!!!!!!!!!!!!!!!
2024-01-18 18:18:05,228 !!!!!!!!!!!!!!!!!!!!!!!!!!!!!!!!!!!!!!!!!!!!!
2024-01-18 18:18:05,228 ## Loading datasets with skeletons:
2024-01-18 18:18:06,358 self.in_mlp=Sequential(
  (0): Linear(in_features=3, out_features=512, bias=True)
  (1): Sigmoid()
  (2): Linear(in_features=512, out_features=512, bias=True)
  (3): Sigmoid()
  (4): Linear(in_features=512, out_features=100, bias=True)
  (5): Sigmoid()
)
2024-01-18 18:19:18,652 !!!!!!!!!!!!!!!!!!!!!!!!!!!!!!!!!!!!!!!!!!!!!
2024-01-18 18:19:18,652 !!!!!!!!!!!!!!!!!!!!!!!!!!!!!!!!!!!!!!!!!!!!!
2024-01-18 18:19:18,653 !!!!!!!!!!!!!!!!!!!!!!!!!!!!!!!!!!!!!!!!!!!!!
2024-01-18 18:19:18,653 ERROR: UNCOMMITTED CHANGES IN REPO! THIS WILL MAKE IT HARD TO REPLICATE THIS EXPERIMENT LATER
2024-01-18 18:19:18,653 !!!!!!!!!!!!!!!!!!!!!!!!!!!!!!!!!!!!!!!!!!!!!
2024-01-18 18:19:18,653 !!!!!!!!!!!!!!!!!!!!!!!!!!!!!!!!!!!!!!!!!!!!!
2024-01-18 18:19:18,653 !!!!!!!!!!!!!!!!!!!!!!!!!!!!!!!!!!!!!!!!!!!!!
2024-01-18 18:19:18,653 ## Loading datasets with skeletons:
2024-01-18 18:19:19,831 self.in_mlp=Sequential(
  (0): Linear(in_features=3, out_features=512, bias=True)
  (1): Sigmoid()
  (2): Linear(in_features=512, out_features=512, bias=True)
  (3): Sigmoid()
  (4): Linear(in_features=512, out_features=100, bias=True)
  (5): Sigmoid()
)
2024-01-18 18:19:35,027 !!!!!!!!!!!!!!!!!!!!!!!!!!!!!!!!!!!!!!!!!!!!!
2024-01-18 18:19:35,027 !!!!!!!!!!!!!!!!!!!!!!!!!!!!!!!!!!!!!!!!!!!!!
2024-01-18 18:19:35,027 !!!!!!!!!!!!!!!!!!!!!!!!!!!!!!!!!!!!!!!!!!!!!
2024-01-18 18:19:35,027 ERROR: UNCOMMITTED CHANGES IN REPO! THIS WILL MAKE IT HARD TO REPLICATE THIS EXPERIMENT LATER
2024-01-18 18:19:35,027 !!!!!!!!!!!!!!!!!!!!!!!!!!!!!!!!!!!!!!!!!!!!!
2024-01-18 18:19:35,028 !!!!!!!!!!!!!!!!!!!!!!!!!!!!!!!!!!!!!!!!!!!!!
2024-01-18 18:19:35,028 !!!!!!!!!!!!!!!!!!!!!!!!!!!!!!!!!!!!!!!!!!!!!
2024-01-18 18:19:35,028 ## Loading datasets with skeletons:
2024-01-18 18:19:36,139 self.in_mlp=Sequential(
  (0): Linear(in_features=3, out_features=512, bias=True)
  (1): Sigmoid()
  (2): Linear(in_features=512, out_features=512, bias=True)
  (3): Sigmoid()
  (4): Linear(in_features=512, out_features=100, bias=True)
  (5): Sigmoid()
)
2024-01-18 18:19:54,181   - Batch 100/4184
2024-01-18 18:20:08,414   - Batch 200/4184
2024-01-18 18:20:22,657   - Batch 300/4184
2024-01-18 18:20:37,037   - Batch 400/4184
2024-01-18 18:20:51,342   - Batch 500/4184
2024-01-18 18:21:05,713   - Batch 600/4184
2024-01-18 18:21:20,082   - Batch 700/4184
2024-01-18 18:23:07,857 !!!!!!!!!!!!!!!!!!!!!!!!!!!!!!!!!!!!!!!!!!!!!
…
2024-01-18 18:24:53,350 !!!!!!!!!!!!!!!!!!!!!!!!!!!!!!!!!!!!!!!!!!!!!
2024-01-18 18:24:53,350 !!!!!!!!!!!!!!!!!!!!!!!!!!!!!!!!!!!!!!!!!!!!!
2024-01-18 18:24:53,350 ERROR: UNCOMMITTED CHANGES IN REPO! THIS WILL MAKE IT HARD TO REPLICATE THIS EXPERIMENT LATER
2024-01-18 18:24:53,350 !!!!!!!!!!!!!!!!!!!!!!!!!!!!!!!!!!!!!!!!!!!!!
2024-01-18 18:24:53,350 !!!!!!!!!!!!!!!!!!!!!!!!!!!!!!!!!!!!!!!!!!!!!
2024-01-18 18:24:53,350 !!!!!!!!!!!!!!!!!!!!!!!!!!!!!!!!!!!!!!!!!!!!!
2024-01-18 18:24:53,350 Initializing wandb...
2024-01-18 18:24:54,625 ## Loading datasets with skeletons:
2024-01-18 18:24:55,869 self.in_mlp=Sequential(
  (0): Linear(in_features=3, out_features=128, bias=True)
  (1): Sigmoid()
  (2): Linear(in_features=128, out_features=2048, bias=True)
  (3): Sigmoid()
)
2024-01-18 18:25:44,145   - Batch 100/4184
2024-01-18 18:26:28,275   - Batch 200/4184
2024-01-18 18:27:14,068   - Batch 300/4184
2024-01-18 18:27:33,601 !!!!!!!!!!!!!!!!!!!!!!!!!!!!!!!!!!!!!!!!!!!!!
2024-01-18 18:27:33,601 !!!!!!!!!!!!!!!!!!!!!!!!!!!!!!!!!!!!!!!!!!!!!
2024-01-18 18:27:33,601 !!!!!!!!!!!!!!!!!!!!!!!!!!!!!!!!!!!!!!!!!!!!!
2024-01-18 18:27:33,601 ERROR: UNCOMMITTED CHANGES IN REPO! THIS WILL MAKE IT HARD TO REPLICATE THIS EXPERIMENT LATER
2024-01-18 18:27:33,601 !!!!!!!!!!!!!!!!!!!!!!!!!!!!!!!!!!!!!!!!!!!!!
2024-01-18 18:27:33,601 !!!!!!!!!!!!!!!!!!!!!!!!!!!!!!!!!!!!!!!!!!!!!
2024-01-18 18:27:33,601 !!!!!!!!!!!!!!!!!!!!!!!!!!!!!!!!!!!!!!!!!!!!!
2024-01-18 18:27:33,601 Initializing wandb...
2024-01-18 18:27:34,739 ## Loading datasets with skeletons:
2024-01-18 18:27:36,310 self.in_mlp=Sequential(
  (0): Linear(in_features=3, out_features=128, bias=True)
  (1): Sigmoid()
  (2): Linear(in_features=128, out_features=4096, bias=True)
  (3): Sigmoid()
)
2024-01-18 18:29:39,615 !!!!!!!!!!!!!!!!!!!!!!!!!!!!!!!!!!!!!!!!!!!!!
2024-01-18 18:29:39,616 !!!!!!!!!!!!!!!!!!!!!!!!!!!!!!!!!!!!!!!!!!!!!
2024-01-18 18:29:39,616 !!!!!!!!!!!!!!!!!!!!!!!!!!!!!!!!!!!!!!!!!!!!!
2024-01-18 18:29:39,616 ERROR: UNCOMMITTED CHANGES IN REPO! THIS WILL MAKE IT HARD TO REPLICATE THIS EXPERIMENT LATER
2024-01-18 18:29:39,616 !!!!!!!!!!!!!!!!!!!!!!!!!!!!!!!!!!!!!!!!!!!!!
2024-01-18 18:29:39,616 !!!!!!!!!!!!!!!!!!!!!!!!!!!!!!!!!!!!!!!!!!!!!
2024-01-18 18:29:39,616 !!!!!!!!!!!!!!!!!!!!!!!!!!!!!!!!!!!!!!!!!!!!!
2024-01-18 18:29:39,616 Initializing wandb...
2024-01-18 18:29:40,863 ## Loading datasets with skeletons:
2024-01-18 18:29:42,095 self.in_mlp=Sequential(
  (0): Linear(in_features=3, out_features=128, bias=True)
  (1): Sigmoid()
  (2): Linear(in_features=128, out_features=2048, bias=True)
  (3): Sigmoid()
)
2024-01-18 18:30:42,766 !!!!!!!!!!!!!!!!!!!!!!!!!!!!!!!!!!!!!!!!!!!!!
2024-01-18 18:30:42,767 !!!!!!!!!!!!!!!!!!!!!!!!!!!!!!!!!!!!!!!!!!!!!
2024-01-18 18:30:42,767 !!!!!!!!!!!!!!!!!!!!!!!!!!!!!!!!!!!!!!!!!!!!!
2024-01-18 18:30:42,767 ERROR: UNCOMMITTED CHANGES IN REPO! THIS WILL MAKE IT HARD TO REPLICATE THIS EXPERIMENT LATER
2024-01-18 18:30:42,767 !!!!!!!!!!!!!!!!!!!!!!!!!!!!!!!!!!!!!!!!!!!!!
2024-01-18 18:30:42,767 !!!!!!!!!!!!!!!!!!!!!!!!!!!!!!!!!!!!!!!!!!!!!
2024-01-18 18:30:42,767 !!!!!!!!!!!!!!!!!!!!!!!!!!!!!!!!!!!!!!!!!!!!!
2024-01-18 18:30:42,767 Initializing wandb...
2024-01-18 18:30:44,175 ## Loading datasets with skeletons:
2024-01-18 18:30:45,419 self.in_mlp=Sequential(
  (0): Linear(in_features=3, out_features=128, bias=True)
  (1): Sigmoid()
  (2): Linear(in_features=128, out_features=2048, bias=True)
  (3): Sigmoid()
)
2024-01-18 18:31:44,556 !!!!!!!!!!!!!!!!!!!!!!!!!!!!!!!!!!!!!!!!!!!!!
2024-01-18 18:31:44,557 !!!!!!!!!!!!!!!!!!!!!!!!!!!!!!!!!!!!!!!!!!!!!
2024-01-18 18:31:44,557 !!!!!!!!!!!!!!!!!!!!!!!!!!!!!!!!!!!!!!!!!!!!!
2024-01-18 18:31:44,557 ERROR: UNCOMMITTED CHANGES IN REPO! THIS WILL MAKE IT HARD TO REPLICATE THIS EXPERIMENT LATER
2024-01-18 18:31:44,557 !!!!!!!!!!!!!!!!!!!!!!!!!!!!!!!!!!!!!!!!!!!!!
2024-01-18 18:31:44,557 !!!!!!!!!!!!!!!!!!!!!!!!!!!!!!!!!!!!!!!!!!!!!
2024-01-18 18:31:44,557 !!!!!!!!!!!!!!!!!!!!!!!!!!!!!!!!!!!!!!!!!!!!!
2024-01-18 18:31:44,557 Initializing wandb...
2024-01-18 18:31:47,652 ## Loading datasets with skeletons:
2024-01-18 18:31:48,977 self.in_mlp=Sequential(
  (0): Linear(in_features=3, out_features=128, bias=True)
  (1): Sigmoid()
  (2): Linear(in_features=128, out_features=2048, bias=True)
  (3): Sigmoid()
)
2024-01-18 18:32:37,944   - Batch 100/4184
2024-01-18 18:33:21,958   - Batch 200/4184
2024-01-18 18:34:08,045   - Batch 300/4184
2024-01-18 18:34:54,142   - Batch 400/4184
2024-01-18 18:35:38,350   - Batch 500/4184
2024-01-18 18:36:24,861   - Batch 600/4184
2024-01-18 18:37:05,039 !!!!!!!!!!!!!!!!!!!!!!!!!!!!!!!!!!!!!!!!!!!!!
2024-01-18 18:37:05,039 !!!!!!!!!!!!!!!!!!!!!!!!!!!!!!!!!!!!!!!!!!!!!
…
2024-01-18 18:37:53,015 Training Set Evaluation: 
2024-01-18 18:37:54,582   - Batch 4/4
2024-01-18 18:37:55,418 epoch=3 / 10
2024-01-18 18:37:55,418 Training Set Evaluation: 
2024-01-18 18:37:56,971   - Batch 4/4
2024-01-18 18:37:57,787 epoch=4 / 10
2024-01-18 18:37:57,787 Training Set Evaluation: 
2024-01-18 18:37:59,374   - Batch 4/4
2024-01-18 18:38:00,211 epoch=5 / 10
2024-01-18 18:38:00,211 Training Set Evaluation: 
2024-01-18 18:38:01,811   - Batch 4/4
2024-01-18 18:38:02,638 epoch=6 / 10
2024-01-18 18:38:02,638 Training Set Evaluation: 
2024-01-18 18:42:15,173 self.in_mlp=Sequential(
  (0): Linear(in_features=3, out_features=128, bias=True)
  (1): Sigmoid()
  (2): Linear(in_features=128, out_features=2048, bias=True)
  (3): Sigmoid()
)
2024-01-18 18:43:09,894 self.in_mlp=Sequential(
  (0): Linear(in_features=3, out_features=128, bias=True)
  (1): Sigmoid()
  (2): Linear(in_features=128, out_features=2048, bias=True)
  (3): Sigmoid()
)
2024-01-18 18:44:14,309 self.in_mlp=Sequential(
  (0): Linear(in_features=3, out_features=128, bias=True)
  (1): Sigmoid()
  (2): Linear(in_features=128, out_features=2048, bias=True)
  (3): Sigmoid()
)
2024-01-18 18:45:23,565 self.in_mlp=Sequential(
  (0): Linear(in_features=3, out_features=128, bias=True)
  (1): Sigmoid()
  (2): Linear(in_features=128, out_features=2048, bias=True)
  (3): Sigmoid()
)
2024-01-18 18:45:38,965 self.in_mlp=Sequential(
  (0): Linear(in_features=3, out_features=128, bias=True)
  (1): Sigmoid()
  (2): Linear(in_features=128, out_features=2048, bias=True)
  (3): Sigmoid()
)
2024-01-18 18:46:56,597 self.in_mlp=Sequential(
  (0): Linear(in_features=3, out_features=128, bias=True)
  (1): Sigmoid()
  (2): Linear(in_features=128, out_features=2048, bias=True)
  (3): Sigmoid()
)
2024-01-18 18:46:56,598 latest_checkpoint='../checkpoints/lstm/epoch_6_batch_3.pt'
2024-01-18 18:47:51,556 self.in_mlp=Sequential(
  (0): Linear(in_features=3, out_features=128, bias=True)
  (1): Sigmoid()
  (2): Linear(in_features=128, out_features=2048, bias=True)
  (3): Sigmoid()
)
2024-01-18 18:47:51,557 latest_checkpoint='../checkpoints/lstm/epoch_6_batch_3.pt'
2024-01-18 18:49:05,850 self.in_mlp=Sequential(
  (0): Linear(in_features=3, out_features=128, bias=True)
  (1): Sigmoid()
  (2): Linear(in_features=128, out_features=2048, bias=True)
  (3): Sigmoid()
)
2024-01-18 18:49:05,852 latest_checkpoint='../checkpoints/lstm/epoch_6_batch_3.pt'
2024-01-18 18:51:30,801 self.in_mlp=Sequential(
  (0): Linear(in_features=3, out_features=128, bias=True)
  (1): Sigmoid()
  (2): Linear(in_features=128, out_features=2048, bias=True)
  (3): Sigmoid()
)
2024-01-18 18:51:30,802 self.out_mlp=Sequential(
  (0): Linear(in_features=2048, out_features=128, bias=True)
  (1): Sigmoid()
  (2): Linear(in_features=128, out_features=108, bias=True)
  (3): ScaledTanh()
)
2024-01-18 18:51:30,802 latest_checkpoint='../checkpoints/lstm/epoch_6_batch_3.pt'
2024-01-18 18:51:38,004 !!!!!!!!!!!!!!!!!!!!!!!!!!!!!!!!!!!!!!!!!!!!!
2024-01-18 18:51:38,004 !!!!!!!!!!!!!!!!!!!!!!!!!!!!!!!!!!!!!!!!!!!!!
2024-01-18 18:51:38,005 !!!!!!!!!!!!!!!!!!!!!!!!!!!!!!!!!!!!!!!!!!!!!
2024-01-18 18:51:38,005 ERROR: UNCOMMITTED CHANGES IN REPO! THIS WILL MAKE IT HARD TO REPLICATE THIS EXPERIMENT LATER
2024-01-18 18:51:38,005 !!!!!!!!!!!!!!!!!!!!!!!!!!!!!!!!!!!!!!!!!!!!!
2024-01-18 18:51:38,005 !!!!!!!!!!!!!!!!!!!!!!!!!!!!!!!!!!!!!!!!!!!!!
2024-01-18 18:51:38,005 !!!!!!!!!!!!!!!!!!!!!!!!!!!!!!!!!!!!!!!!!!!!!
2024-01-18 18:51:38,005 ## Loading datasets with skeletons:
2024-01-18 18:51:38,374 self.in_mlp=Sequential(
  (0): Linear(in_features=3, out_features=128, bias=True)
  (1): Sigmoid()
  (2): Linear(in_features=128, out_features=2048, bias=True)
  (3): Sigmoid()
)
2024-01-18 18:51:38,375 self.out_mlp=Sequential(
  (0): Linear(in_features=2048, out_features=128, bias=True)
  (1): Sigmoid()
  (2): Linear(in_features=128, out_features=108, bias=True)
  (3): ScaledTanh()
)
2024-01-18 18:51:38,375 latest_checkpoint='/Users/keenonwerling/Desktop/dev/MarkerTranslator/checkpoints/lstm/epoch_6_batch_3.pt'
2024-01-18 18:51:53,741 !!!!!!!!!!!!!!!!!!!!!!!!!!!!!!!!!!!!!!!!!!!!!
2024-01-18 18:51:53,742 !!!!!!!!!!!!!!!!!!!!!!!!!!!!!!!!!!!!!!!!!!!!!
2024-01-18 18:51:53,742 !!!!!!!!!!!!!!!!!!!!!!!!!!!!!!!!!!!!!!!!!!!!!
2024-01-18 18:51:53,742 ERROR: UNCOMMITTED CHANGES IN REPO! THIS WILL MAKE IT HARD TO REPLICATE THIS EXPERIMENT LATER
2024-01-18 18:51:53,742 !!!!!!!!!!!!!!!!!!!!!!!!!!!!!!!!!!!!!!!!!!!!!
2024-01-18 18:51:53,742 !!!!!!!!!!!!!!!!!!!!!!!!!!!!!!!!!!!!!!!!!!!!!
2024-01-18 18:51:53,742 !!!!!!!!!!!!!!!!!!!!!!!!!!!!!!!!!!!!!!!!!!!!!
2024-01-18 18:51:53,742 ## Loading datasets with skeletons:
2024-01-18 18:51:54,131 self.in_mlp=Sequential(
  (0): Linear(in_features=3, out_features=128, bias=True)
  (1): Sigmoid()
  (2): Linear(in_features=128, out_features=2048, bias=True)
  (3): Sigmoid()
)
2024-01-18 18:51:54,131 self.out_mlp=Sequential(
  (0): Linear(in_features=2048, out_features=128, bias=True)
  (1): Sigmoid()
  (2): Linear(in_features=128, out_features=108, bias=True)
  (3): ScaledTanh()
)
2024-01-18 18:51:56,891   - Batch 7/7
2024-01-18 18:51:57,173 epoch=0 / 10
2024-01-18 18:51:57,174 Training Set Evaluation: 
2024-01-18 18:51:58,233   - Batch 7/7
2024-01-18 18:51:58,454 epoch=1 / 10
2024-01-18 18:51:58,455 Training Set Evaluation: 
2024-01-18 18:51:59,501   - Batch 7/7
2024-01-18 18:51:59,726 epoch=2 / 10
2024-01-18 18:51:59,726 Training Set Evaluation: 
…
2024-01-18 18:52:03,606 Training Set Evaluation: 
2024-01-18 18:52:04,637   - Batch 7/7
2024-01-18 18:52:04,855 epoch=6 / 10
2024-01-18 18:52:04,855 Training Set Evaluation: 
2024-01-18 18:52:05,914   - Batch 7/7
2024-01-18 18:52:06,138 epoch=7 / 10
2024-01-18 18:52:06,138 Training Set Evaluation: 
2024-01-18 18:52:07,182   - Batch 7/7
2024-01-18 18:52:07,395 epoch=8 / 10
2024-01-18 18:52:07,395 Training Set Evaluation: 
2024-01-18 18:52:08,449   - Batch 7/7
2024-01-18 18:52:08,666 epoch=9 / 10
2024-01-18 18:52:08,667 Training Set Evaluation: 
2024-01-18 18:52:30,779 self.in_mlp=Sequential(
  (0): Linear(in_features=3, out_features=128, bias=True)
  (1): Sigmoid()
  (2): Linear(in_features=128, out_features=2048, bias=True)
  (3): Sigmoid()
)
2024-01-18 18:52:30,780 self.out_mlp=Sequential(
  (0): Linear(in_features=2048, out_features=128, bias=True)
  (1): Sigmoid()
  (2): Linear(in_features=128, out_features=108, bias=True)
  (3): ScaledTanh()
)
2024-01-18 18:52:30,780 latest_checkpoint='../checkpoints/lstm/epoch_9_batch_6.pt'
2024-01-18 18:53:50,903 !!!!!!!!!!!!!!!!!!!!!!!!!!!!!!!!!!!!!!!!!!!!!
2024-01-18 18:53:50,904 !!!!!!!!!!!!!!!!!!!!!!!!!!!!!!!!!!!!!!!!!!!!!
2024-01-18 18:53:50,904 !!!!!!!!!!!!!!!!!!!!!!!!!!!!!!!!!!!!!!!!!!!!!
2024-01-18 18:53:50,904 ERROR: UNCOMMITTED CHANGES IN REPO! THIS WILL MAKE IT HARD TO REPLICATE THIS EXPERIMENT LATER
2024-01-18 18:53:50,904 !!!!!!!!!!!!!!!!!!!!!!!!!!!!!!!!!!!!!!!!!!!!!
2024-01-18 18:53:50,904 !!!!!!!!!!!!!!!!!!!!!!!!!!!!!!!!!!!!!!!!!!!!!
2024-01-18 18:53:50,904 !!!!!!!!!!!!!!!!!!!!!!!!!!!!!!!!!!!!!!!!!!!!!
2024-01-18 18:53:50,904 ## Loading datasets with skeletons:
2024-01-18 18:53:51,339 self.in_mlp=Sequential(
  (0): Linear(in_features=3, out_features=128, bias=True)
  (1): Sigmoid()
  (2): Linear(in_features=128, out_features=2048, bias=True)
  (3): Sigmoid()
)
2024-01-18 18:53:51,339 self.out_mlp=Sequential(
  (0): Linear(in_features=2048, out_features=2048, bias=True)
  (1): Sigmoid()
  (2): Linear(in_features=2048, out_features=108, bias=True)
  (3): ScaledTanh()
)
2024-01-18 18:53:54,125   - Batch 7/7
2024-01-18 18:53:54,361 epoch=0 / 10
2024-01-18 18:53:54,361 Training Set Evaluation: 
2024-01-18 18:53:55,468   - Batch 7/7
2024-01-18 18:53:55,669 epoch=1 / 10
2024-01-18 18:53:55,669 Training Set Evaluation: 
2024-01-18 18:53:56,771   - Batch 7/7
2024-01-18 18:53:56,980 epoch=2 / 10
2024-01-18 18:53:56,980 Training Set Evaluation: 
…
2024-01-18 18:55:33,166 Training Set Evaluation: 
2024-01-18 18:55:34,272   - Batch 7/7
2024-01-18 18:55:34,459 epoch=6 / 10
2024-01-18 18:55:34,459 Training Set Evaluation: 
2024-01-18 18:55:35,555   - Batch 7/7
2024-01-18 18:55:35,743 epoch=7 / 10
2024-01-18 18:55:35,743 Training Set Evaluation: 
2024-01-18 18:55:36,836   - Batch 7/7
2024-01-18 18:55:37,021 epoch=8 / 10
2024-01-18 18:55:37,021 Training Set Evaluation: 
2024-01-18 18:55:38,105   - Batch 7/7
2024-01-18 18:55:38,293 epoch=9 / 10
2024-01-18 18:55:38,293 Training Set Evaluation: 
2024-01-18 18:56:05,693 self.in_mlp=Sequential(
  (0): Linear(in_features=3, out_features=128, bias=True)
  (1): Sigmoid()
  (2): Linear(in_features=128, out_features=2048, bias=True)
  (3): Sigmoid()
)
2024-01-18 18:56:05,693 self.out_mlp=Sequential(
  (0): Linear(in_features=2048, out_features=2048, bias=True)
  (1): Sigmoid()
  (2): Linear(in_features=2048, out_features=108, bias=True)
  (3): Tanh()
)
2024-01-18 18:56:05,693 latest_checkpoint='../checkpoints/lstm/epoch_9_batch_6.pt'
2024-01-18 18:56:54,126 self.in_mlp=Sequential(
  (0): Linear(in_features=3, out_features=128, bias=True)
  (1): Sigmoid()
  (2): Linear(in_features=128, out_features=2048, bias=True)
  (3): Sigmoid()
)
2024-01-18 18:56:54,126 self.out_mlp=Sequential(
  (0): Linear(in_features=2048, out_features=2048, bias=True)
  (1): Sigmoid()
  (2): Linear(in_features=2048, out_features=108, bias=True)
  (3): Tanh()
)
2024-01-18 18:56:54,126 latest_checkpoint='../checkpoints/lstm/epoch_9_batch_6.pt'
2024-01-18 18:58:12,125 self.in_mlp=Sequential(
  (0): Linear(in_features=3, out_features=128, bias=True)
  (1): Sigmoid()
  (2): Linear(in_features=128, out_features=2048, bias=True)
  (3): Sigmoid()
)
2024-01-18 18:58:12,127 self.out_mlp=Sequential(
  (0): Linear(in_features=2048, out_features=2048, bias=True)
  (1): Sigmoid()
  (2): Linear(in_features=2048, out_features=108, bias=True)
  (3): Tanh()
)
2024-01-18 18:58:12,127 latest_checkpoint='../checkpoints/lstm/epoch_9_batch_6.pt'
2024-01-18 18:59:20,507 !!!!!!!!!!!!!!!!!!!!!!!!!!!!!!!!!!!!!!!!!!!!!
2024-01-18 18:59:20,508 !!!!!!!!!!!!!!!!!!!!!!!!!!!!!!!!!!!!!!!!!!!!!
2024-01-18 18:59:20,508 !!!!!!!!!!!!!!!!!!!!!!!!!!!!!!!!!!!!!!!!!!!!!
2024-01-18 18:59:20,508 ERROR: UNCOMMITTED CHANGES IN REPO! THIS WILL MAKE IT HARD TO REPLICATE THIS EXPERIMENT LATER
2024-01-18 18:59:20,508 !!!!!!!!!!!!!!!!!!!!!!!!!!!!!!!!!!!!!!!!!!!!!
2024-01-18 18:59:20,508 !!!!!!!!!!!!!!!!!!!!!!!!!!!!!!!!!!!!!!!!!!!!!
2024-01-18 18:59:20,508 !!!!!!!!!!!!!!!!!!!!!!!!!!!!!!!!!!!!!!!!!!!!!
2024-01-18 18:59:20,508 ## Loading datasets with skeletons:
2024-01-18 18:59:20,939 self.in_mlp=Sequential(
  (0): Linear(in_features=3, out_features=128, bias=True)
  (1): Sigmoid()
  (2): Linear(in_features=128, out_features=2048, bias=True)
  (3): Sigmoid()
)
2024-01-18 18:59:20,939 self.out_mlp=Sequential(
  (0): Linear(in_features=2048, out_features=2048, bias=True)
  (1): Sigmoid()
  (2): Linear(in_features=2048, out_features=108, bias=True)
  (3): Tanh()
)
2024-01-18 18:59:23,635   - Batch 7/7
2024-01-18 18:59:24,005 epoch=0 / 10
2024-01-18 18:59:24,006 Training Set Evaluation: 
2024-01-18 18:59:25,069   - Batch 7/7
2024-01-18 18:59:25,389 epoch=1 / 10
2024-01-18 18:59:25,389 Training Set Evaluation: 
2024-01-18 18:59:26,453   - Batch 7/7
2024-01-18 18:59:26,777 epoch=2 / 10
2024-01-18 18:59:26,777 Training Set Evaluation: 
…
2024-01-18 19:00:24,968 Training Set Evaluation: 
2024-01-18 19:00:26,052   - Batch 7/7
2024-01-18 19:00:26,338 epoch=6 / 10
2024-01-18 19:00:26,338 Training Set Evaluation: 
2024-01-18 19:00:27,393   - Batch 7/7
2024-01-18 19:00:27,679 epoch=7 / 10
2024-01-18 19:00:27,679 Training Set Evaluation: 
2024-01-18 19:00:28,726   - Batch 7/7
2024-01-18 19:00:29,004 epoch=8 / 10
2024-01-18 19:00:29,004 Training Set Evaluation: 
2024-01-18 19:00:30,061   - Batch 7/7
2024-01-18 19:00:30,348 epoch=9 / 10
2024-01-18 19:00:30,348 Training Set Evaluation: 
2024-01-18 19:01:05,560 self.in_mlp=Sequential(
  (0): Linear(in_features=3, out_features=128, bias=True)
  (1): Sigmoid()
  (2): Linear(in_features=128, out_features=2048, bias=True)
  (3): Sigmoid()
)
2024-01-18 19:01:05,560 self.out_mlp=Sequential(
  (0): Linear(in_features=2048, out_features=2048, bias=True)
  (1): Sigmoid()
  (2): Linear(in_features=2048, out_features=108, bias=True)
  (3): Tanh()
)
2024-01-18 19:01:05,560 latest_checkpoint='../checkpoints/lstm/epoch_9_batch_6.pt'
2024-01-18 19:01:38,912 !!!!!!!!!!!!!!!!!!!!!!!!!!!!!!!!!!!!!!!!!!!!!
2024-01-18 19:01:38,912 !!!!!!!!!!!!!!!!!!!!!!!!!!!!!!!!!!!!!!!!!!!!!
2024-01-18 19:01:38,912 !!!!!!!!!!!!!!!!!!!!!!!!!!!!!!!!!!!!!!!!!!!!!
2024-01-18 19:01:38,912 ERROR: UNCOMMITTED CHANGES IN REPO! THIS WILL MAKE IT HARD TO REPLICATE THIS EXPERIMENT LATER
2024-01-18 19:01:38,912 !!!!!!!!!!!!!!!!!!!!!!!!!!!!!!!!!!!!!!!!!!!!!
2024-01-18 19:01:38,912 !!!!!!!!!!!!!!!!!!!!!!!!!!!!!!!!!!!!!!!!!!!!!
2024-01-18 19:01:38,912 !!!!!!!!!!!!!!!!!!!!!!!!!!!!!!!!!!!!!!!!!!!!!
2024-01-18 19:01:38,912 Initializing wandb...
2024-01-18 19:01:45,261 ## Loading datasets with skeletons:
2024-01-18 19:02:09,647 self.in_mlp=Sequential(
  (0): Linear(in_features=3, out_features=128, bias=True)
  (1): Sigmoid()
  (2): Linear(in_features=128, out_features=2048, bias=True)
  (3): Sigmoid()
)
2024-01-18 19:02:09,649 self.out_mlp=Sequential(
  (0): Linear(in_features=2048, out_features=2048, bias=True)
  (1): Sigmoid()
  (2): Linear(in_features=2048, out_features=108, bias=True)
  (3): Tanh()
)
2024-01-18 19:02:52,884   - Batch 100/126838
2024-01-18 19:03:07,828   - Batch 200/126838
2024-01-18 19:03:22,551   - Batch 300/126838
2024-01-18 19:03:37,181   - Batch 400/126838
2024-01-18 19:03:52,556   - Batch 500/126838
2024-01-18 19:04:07,417   - Batch 600/126838
2024-01-18 19:04:22,701   - Batch 700/126838
2024-01-18 19:04:37,437   - Batch 800/126838
…
2024-01-18 20:05:28,526 !!!!!!!!!!!!!!!!!!!!!!!!!!!!!!!!!!!!!!!!!!!!!
2024-01-18 20:05:28,527 !!!!!!!!!!!!!!!!!!!!!!!!!!!!!!!!!!!!!!!!!!!!!
2024-01-18 20:05:28,527 !!!!!!!!!!!!!!!!!!!!!!!!!!!!!!!!!!!!!!!!!!!!!
2024-01-18 20:05:28,527 ERROR: UNCOMMITTED CHANGES IN REPO! THIS WILL MAKE IT HARD TO REPLICATE THIS EXPERIMENT LATER
2024-01-18 20:05:28,527 !!!!!!!!!!!!!!!!!!!!!!!!!!!!!!!!!!!!!!!!!!!!!
2024-01-18 20:05:28,527 !!!!!!!!!!!!!!!!!!!!!!!!!!!!!!!!!!!!!!!!!!!!!
2024-01-18 20:05:28,527 !!!!!!!!!!!!!!!!!!!!!!!!!!!!!!!!!!!!!!!!!!!!!
2024-01-18 20:05:28,527 ## Loading datasets with skeletons:
2024-01-18 20:05:28,822 self.in_mlp=Sequential(
  (0): Linear(in_features=3, out_features=128, bias=True)
  (1): Sigmoid()
  (2): Linear(in_features=128, out_features=1024, bias=True)
  (3): Sigmoid()
)
2024-01-18 20:05:28,822 self.out_mlp=Sequential(
  (0): Linear(in_features=1024, out_features=1024, bias=True)
  (1): Sigmoid()
  (2): Linear(in_features=1024, out_features=108, bias=True)
  (3): Tanh()
)
2024-01-18 20:05:35,796 !!!!!!!!!!!!!!!!!!!!!!!!!!!!!!!!!!!!!!!!!!!!!
2024-01-18 20:05:35,796 !!!!!!!!!!!!!!!!!!!!!!!!!!!!!!!!!!!!!!!!!!!!!
2024-01-18 20:05:35,796 !!!!!!!!!!!!!!!!!!!!!!!!!!!!!!!!!!!!!!!!!!!!!
2024-01-18 20:05:35,796 ERROR: UNCOMMITTED CHANGES IN REPO! THIS WILL MAKE IT HARD TO REPLICATE THIS EXPERIMENT LATER
2024-01-18 20:05:35,796 !!!!!!!!!!!!!!!!!!!!!!!!!!!!!!!!!!!!!!!!!!!!!
2024-01-18 20:05:35,796 !!!!!!!!!!!!!!!!!!!!!!!!!!!!!!!!!!!!!!!!!!!!!
2024-01-18 20:05:35,796 !!!!!!!!!!!!!!!!!!!!!!!!!!!!!!!!!!!!!!!!!!!!!
2024-01-18 20:05:35,796 ## Loading datasets with skeletons:
2024-01-18 20:05:36,090 self.in_mlp=Sequential(
  (0): Linear(in_features=3, out_features=128, bias=True)
  (1): Sigmoid()
  (2): Linear(in_features=128, out_features=1024, bias=True)
  (3): Sigmoid()
)
2024-01-18 20:05:36,091 self.out_mlp=Sequential(
  (0): Linear(in_features=1024, out_features=1024, bias=True)
  (1): Sigmoid()
  (2): Linear(in_features=1024, out_features=108, bias=True)
  (3): Tanh()
)
2024-01-18 20:05:38,688   - Batch 7/7
2024-01-18 20:05:38,810 epoch=0 / 10
2024-01-18 20:05:38,810 Training Set Evaluation: 
2024-01-18 20:05:52,226 !!!!!!!!!!!!!!!!!!!!!!!!!!!!!!!!!!!!!!!!!!!!!
2024-01-18 20:05:52,226 !!!!!!!!!!!!!!!!!!!!!!!!!!!!!!!!!!!!!!!!!!!!!
2024-01-18 20:05:52,226 !!!!!!!!!!!!!!!!!!!!!!!!!!!!!!!!!!!!!!!!!!!!!
2024-01-18 20:05:52,226 ERROR: UNCOMMITTED CHANGES IN REPO! THIS WILL MAKE IT HARD TO REPLICATE THIS EXPERIMENT LATER
2024-01-18 20:05:52,226 !!!!!!!!!!!!!!!!!!!!!!!!!!!!!!!!!!!!!!!!!!!!!
2024-01-18 20:05:52,226 !!!!!!!!!!!!!!!!!!!!!!!!!!!!!!!!!!!!!!!!!!!!!
2024-01-18 20:05:52,226 !!!!!!!!!!!!!!!!!!!!!!!!!!!!!!!!!!!!!!!!!!!!!
2024-01-18 20:05:52,226 ## Loading datasets with skeletons:
2024-01-18 20:05:52,524 self.in_mlp=Sequential(
  (0): Linear(in_features=3, out_features=128, bias=True)
  (1): Sigmoid()
  (2): Linear(in_features=128, out_features=1024, bias=True)
  (3): Sigmoid()
)
2024-01-18 20:05:52,524 self.out_mlp=Sequential(
  (0): Linear(in_features=1024, out_features=1024, bias=True)
  (1): Sigmoid()
  (2): Linear(in_features=1024, out_features=108, bias=True)
  (3): Tanh()
)
2024-01-18 20:05:55,196   - Batch 7/7
2024-01-18 20:05:55,321 epoch=0 / 10
2024-01-18 20:05:55,321 Training Set Evaluation: 
2024-01-18 20:05:56,428   - Batch 7/7
2024-01-18 20:05:56,547 epoch=1 / 10
2024-01-18 20:05:56,547 Training Set Evaluation: 
2024-01-18 20:08:20,645 !!!!!!!!!!!!!!!!!!!!!!!!!!!!!!!!!!!!!!!!!!!!!
2024-01-18 20:08:20,646 !!!!!!!!!!!!!!!!!!!!!!!!!!!!!!!!!!!!!!!!!!!!!
2024-01-18 20:08:20,646 !!!!!!!!!!!!!!!!!!!!!!!!!!!!!!!!!!!!!!!!!!!!!
2024-01-18 20:08:20,646 ERROR: UNCOMMITTED CHANGES IN REPO! THIS WILL MAKE IT HARD TO REPLICATE THIS EXPERIMENT LATER
2024-01-18 20:08:20,646 !!!!!!!!!!!!!!!!!!!!!!!!!!!!!!!!!!!!!!!!!!!!!
2024-01-18 20:08:20,646 !!!!!!!!!!!!!!!!!!!!!!!!!!!!!!!!!!!!!!!!!!!!!
2024-01-18 20:08:20,646 !!!!!!!!!!!!!!!!!!!!!!!!!!!!!!!!!!!!!!!!!!!!!
2024-01-18 20:08:20,646 ## Loading datasets with skeletons:
2024-01-18 20:08:20,997 self.in_mlp=Sequential(
  (0): Linear(in_features=3, out_features=128, bias=True)
  (1): Sigmoid()
  (2): Linear(in_features=128, out_features=1024, bias=True)
  (3): Sigmoid()
)
2024-01-18 20:08:20,997 self.out_mlp=Sequential(
  (0): Linear(in_features=1024, out_features=1024, bias=True)
  (1): Sigmoid()
  (2): Linear(in_features=1024, out_features=108, bias=True)
  (3): Tanh()
)
2024-01-18 20:08:23,733   - Batch 7/7
2024-01-18 20:08:23,872 epoch=0 / 10
2024-01-18 20:08:23,872 Training Set Evaluation: 
2024-01-18 20:08:33,138 !!!!!!!!!!!!!!!!!!!!!!!!!!!!!!!!!!!!!!!!!!!!!
2024-01-18 20:08:33,138 !!!!!!!!!!!!!!!!!!!!!!!!!!!!!!!!!!!!!!!!!!!!!
2024-01-18 20:08:33,138 !!!!!!!!!!!!!!!!!!!!!!!!!!!!!!!!!!!!!!!!!!!!!
2024-01-18 20:08:33,138 ERROR: UNCOMMITTED CHANGES IN REPO! THIS WILL MAKE IT HARD TO REPLICATE THIS EXPERIMENT LATER
2024-01-18 20:08:33,138 !!!!!!!!!!!!!!!!!!!!!!!!!!!!!!!!!!!!!!!!!!!!!
2024-01-18 20:08:33,138 !!!!!!!!!!!!!!!!!!!!!!!!!!!!!!!!!!!!!!!!!!!!!
2024-01-18 20:08:33,138 !!!!!!!!!!!!!!!!!!!!!!!!!!!!!!!!!!!!!!!!!!!!!
2024-01-18 20:08:33,138 ## Loading datasets with skeletons:
2024-01-18 20:08:33,439 self.in_mlp=Sequential(
  (0): Linear(in_features=3, out_features=128, bias=True)
  (1): Sigmoid()
  (2): Linear(in_features=128, out_features=1024, bias=True)
  (3): Sigmoid()
)
2024-01-18 20:08:33,439 self.out_mlp=Sequential(
  (0): Linear(in_features=1024, out_features=1024, bias=True)
  (1): Sigmoid()
  (2): Linear(in_features=1024, out_features=108, bias=True)
  (3): Tanh()
)
2024-01-18 20:08:36,091   - Batch 7/7
2024-01-18 20:08:36,213 epoch=0 / 10
2024-01-18 20:08:36,213 Training Set Evaluation: 
2024-01-18 20:08:37,290   - Batch 7/7
2024-01-18 20:08:37,412 epoch=1 / 10
2024-01-18 20:08:37,412 Training Set Evaluation: 
2024-01-18 20:08:38,507   - Batch 7/7
2024-01-18 20:08:38,630 epoch=2 / 10
2024-01-18 20:08:38,631 Training Set Evaluation: 
…
2024-01-19 07:49:13,560 !!!!!!!!!!!!!!!!!!!!!!!!!!!!!!!!!!!!!!!!!!!!!
2024-01-19 07:49:13,560 !!!!!!!!!!!!!!!!!!!!!!!!!!!!!!!!!!!!!!!!!!!!!
2024-01-19 07:49:13,560 ERROR: UNCOMMITTED CHANGES IN REPO! THIS WILL MAKE IT HARD TO REPLICATE THIS EXPERIMENT LATER
2024-01-19 07:49:13,560 !!!!!!!!!!!!!!!!!!!!!!!!!!!!!!!!!!!!!!!!!!!!!
2024-01-19 07:49:13,560 !!!!!!!!!!!!!!!!!!!!!!!!!!!!!!!!!!!!!!!!!!!!!
2024-01-19 07:49:13,560 !!!!!!!!!!!!!!!!!!!!!!!!!!!!!!!!!!!!!!!!!!!!!
2024-01-19 07:49:13,560 Initializing wandb...
2024-01-19 07:49:14,824 ## Loading datasets with skeletons:
2024-01-19 07:49:38,684 self.in_mlp=Sequential(
  (0): Linear(in_features=3, out_features=128, bias=True)
  (1): Sigmoid()
  (2): Linear(in_features=128, out_features=1024, bias=True)
  (3): Sigmoid()
)
2024-01-19 07:49:38,684 self.out_mlp=Sequential(
  (0): Linear(in_features=1024, out_features=1024, bias=True)
  (1): Sigmoid()
  (2): Linear(in_features=1024, out_features=108, bias=True)
  (3): Tanh()
)
2024-01-19 07:51:10,764 self.in_mlp=Sequential(
  (0): Linear(in_features=3, out_features=128, bias=True)
  (1): Sigmoid()
  (2): Linear(in_features=128, out_features=1024, bias=True)
  (3): Sigmoid()
)
2024-01-19 07:51:10,764 self.out_mlp=Sequential(
  (0): Linear(in_features=1024, out_features=1024, bias=True)
  (1): Sigmoid()
  (2): Linear(in_features=1024, out_features=108, bias=True)
  (3): Tanh()
)
2024-01-19 07:51:30,292 !!!!!!!!!!!!!!!!!!!!!!!!!!!!!!!!!!!!!!!!!!!!!
2024-01-19 07:51:30,293 !!!!!!!!!!!!!!!!!!!!!!!!!!!!!!!!!!!!!!!!!!!!!
2024-01-19 07:51:30,293 !!!!!!!!!!!!!!!!!!!!!!!!!!!!!!!!!!!!!!!!!!!!!
2024-01-19 07:51:30,293 ERROR: UNCOMMITTED CHANGES IN REPO! THIS WILL MAKE IT HARD TO REPLICATE THIS EXPERIMENT LATER
2024-01-19 07:51:30,293 !!!!!!!!!!!!!!!!!!!!!!!!!!!!!!!!!!!!!!!!!!!!!
2024-01-19 07:51:30,293 !!!!!!!!!!!!!!!!!!!!!!!!!!!!!!!!!!!!!!!!!!!!!
2024-01-19 07:51:30,293 !!!!!!!!!!!!!!!!!!!!!!!!!!!!!!!!!!!!!!!!!!!!!
2024-01-19 07:51:30,293 ## Loading datasets with skeletons:
2024-01-19 07:51:30,604 self.in_mlp=Sequential(
  (0): Linear(in_features=3, out_features=128, bias=True)
  (1): Sigmoid()
  (2): Linear(in_features=128, out_features=1024, bias=True)
  (3): Sigmoid()
)
2024-01-19 07:51:30,604 self.out_mlp=Sequential(
  (0): Linear(in_features=1024, out_features=1024, bias=True)
  (1): Sigmoid()
  (2): Linear(in_features=1024, out_features=108, bias=True)
  (3): Tanh()
)
2024-01-19 08:06:59,699 !!!!!!!!!!!!!!!!!!!!!!!!!!!!!!!!!!!!!!!!!!!!!
2024-01-19 08:06:59,700 !!!!!!!!!!!!!!!!!!!!!!!!!!!!!!!!!!!!!!!!!!!!!
2024-01-19 08:06:59,700 !!!!!!!!!!!!!!!!!!!!!!!!!!!!!!!!!!!!!!!!!!!!!
2024-01-19 08:06:59,700 ERROR: UNCOMMITTED CHANGES IN REPO! THIS WILL MAKE IT HARD TO REPLICATE THIS EXPERIMENT LATER
2024-01-19 08:06:59,700 !!!!!!!!!!!!!!!!!!!!!!!!!!!!!!!!!!!!!!!!!!!!!
2024-01-19 08:06:59,700 !!!!!!!!!!!!!!!!!!!!!!!!!!!!!!!!!!!!!!!!!!!!!
2024-01-19 08:06:59,700 !!!!!!!!!!!!!!!!!!!!!!!!!!!!!!!!!!!!!!!!!!!!!
2024-01-19 08:06:59,700 ## Loading datasets with skeletons:
2024-01-19 08:06:59,867 self.in_mlp=Sequential(
  (0): Linear(in_features=3, out_features=128, bias=True)
  (1): Sigmoid()
  (2): Linear(in_features=128, out_features=1024, bias=True)
  (3): Sigmoid()
)
2024-01-19 08:06:59,867 self.out_mlp=Sequential(
  (0): Linear(in_features=1024, out_features=1024, bias=True)
  (1): Sigmoid()
  (2): Linear(in_features=1024, out_features=108, bias=True)
  (3): Tanh()
)
2024-01-19 08:07:51,609 !!!!!!!!!!!!!!!!!!!!!!!!!!!!!!!!!!!!!!!!!!!!!
2024-01-19 08:07:51,609 !!!!!!!!!!!!!!!!!!!!!!!!!!!!!!!!!!!!!!!!!!!!!
2024-01-19 08:07:51,609 !!!!!!!!!!!!!!!!!!!!!!!!!!!!!!!!!!!!!!!!!!!!!
2024-01-19 08:07:51,609 ERROR: UNCOMMITTED CHANGES IN REPO! THIS WILL MAKE IT HARD TO REPLICATE THIS EXPERIMENT LATER
2024-01-19 08:07:51,609 !!!!!!!!!!!!!!!!!!!!!!!!!!!!!!!!!!!!!!!!!!!!!
2024-01-19 08:07:51,609 !!!!!!!!!!!!!!!!!!!!!!!!!!!!!!!!!!!!!!!!!!!!!
2024-01-19 08:07:51,609 !!!!!!!!!!!!!!!!!!!!!!!!!!!!!!!!!!!!!!!!!!!!!
2024-01-19 08:07:51,609 ## Loading datasets with skeletons:
2024-01-19 08:07:51,757 self.in_mlp=Sequential(
  (0): Linear(in_features=3, out_features=128, bias=True)
  (1): Sigmoid()
  (2): Linear(in_features=128, out_features=1024, bias=True)
  (3): Sigmoid()
)
2024-01-19 08:07:51,757 self.out_mlp=Sequential(
  (0): Linear(in_features=1024, out_features=1024, bias=True)
  (1): Sigmoid()
  (2): Linear(in_features=1024, out_features=108, bias=True)
  (3): Tanh()
)
2024-01-19 08:08:01,486   - Batch 50/50
2024-01-19 08:08:01,798 epoch=0 / 10
2024-01-19 08:08:01,798 Training Set Evaluation: 
2024-01-19 08:08:10,565   - Batch 50/50
2024-01-19 08:08:10,879 epoch=1 / 10
2024-01-19 08:08:10,879 Training Set Evaluation: 
2024-01-19 08:08:19,617   - Batch 50/50
2024-01-19 08:08:19,926 epoch=2 / 10
2024-01-19 08:08:19,926 Training Set Evaluation: 
…
